... (28479, 38)
[7, 7, 6, 7, 4, 2, 7, 6, 7, 7, 7, 7, 2, 7, 7, 3, 7, 6, 7, 7, 3, 4, 7, 2, 7, 6, 4] 27

    (6): Linear(in_features=10, out_features=7, bias=True)
    (6): Linear(in_features=10, out_features=7, bias=True)
    (6): Linear(in_features=10, out_features=6, bias=True)
    (6): Linear(in_features=10, out_features=7, bias=True)
    (6): Linear(in_features=10, out_features=4, bias=True)
    (6): Linear(in_features=10, out_features=2, bias=True)
    (6): Linear(in_features=10, out_features=7, bias=True)
    (6): Linear(in_features=10, out_features=6, bias=True)
    (6): Linear(in_features=10, out_features=7, bias=True)
    (6): Linear(in_features=10, out_features=7, bias=True)
    (6): Linear(in_features=10, out_features=7, bias=True)
    (6): Linear(in_features=10, out_features=7, bias=True)
    (6): Linear(in_features=10, out_features=2, bias=True)
    (6): Linear(in_features=10, out_features=7, bias=True)
    (6): Linear(in_features=10, out_features=7, bias=True)
    (6): Linear(in_features=10, out_features=3, bias=True)
    (6): Linear(in_features=10, out_features=7, bias=True)
    (6): Linear(in_features=10, out_features=6, bias=True)
    (6): Linear(in_features=10, out_features=7, bias=True)
    (6): Linear(in_features=10, out_features=7, bias=True)
    (6): Linear(in_features=10, out_features=3, bias=True)
    (6): Linear(in_features=10, out_features=4, bias=True)
    (6): Linear(in_features=10, out_features=7, bias=True)
    (6): Linear(in_features=10, out_features=2, bias=True)
    (6): Linear(in_features=10, out_features=7, bias=True)
    (6): Linear(in_features=10, out_features=4, bias=True)

... torch.Size([28478, 7])
... torch.Size([28478, 7])
... torch.Size([28478, 6])
... torch.Size([28478, 7])
... torch.Size([28478, 4])
... torch.Size([28478, 2])
... torch.Size([28478, 7])
... torch.Size([28478, 6])
... torch.Size([28478, 7])
... torch.Size([28478, 7])
... torch.Size([28478, 7])
... torch.Size([28478, 7])
... torch.Size([28478, 2])
... torch.Size([28478, 7])
... torch.Size([28478, 7])
... torch.Size([28478, 3])
... torch.Size([28478, 7])
... torch.Size([28478, 6])
... torch.Size([28478, 7])
... torch.Size([28478, 7])
... torch.Size([28478, 3])
... torch.Size([28478, 4])
... torch.Size([28478, 7])
... torch.Size([28478, 2])
... torch.Size([28478, 7])
... torch.Size([28478, 6])
... torch.Size([28478, 4])

... (28479, 38)
[7, 7, 6, 7, 4, 2, 7, 6, 7, 7, 7, 7, 2, 7, 7, 3, 7, 6, 7, 7, 3, 4, 7, 2, 7, 6, 4] 27
[VAE(
  (encoder): Sequential(
    (0): Linear(in_features=7, out_features=10, bias=True)
    (1): ReLU()
    (2): Linear(in_features=10, out_features=20, bias=True)
    (3): ReLU()
    (4): Linear(in_features=20, out_features=10, bias=True)
    (5): ReLU()
  )
  (encoder_mean): Linear(in_features=10, out_features=5, bias=True)
  (encoder_log_std): Linear(in_features=10, out_features=5, bias=True)
  (decoder): Sequential(
    (0): Linear(in_features=5, out_features=10, bias=True)
    (1): ReLU()
    (2): Linear(in_features=10, out_features=20, bias=True)
    (3): ReLU()
    (4): Linear(in_features=20, out_features=10, bias=True)
    (5): ReLU()
    (6): Linear(in_features=10, out_features=7, bias=True)
    (7): ReLU()
  )
), 
VAE(
  (encoder): Sequential(
    (0): Linear(in_features=7, out_features=10, bias=True)
    (1): ReLU()
    (2): Linear(in_features=10, out_features=20, bias=True)
    (3): ReLU()
    (4): Linear(in_features=20, out_features=10, bias=True)
    (5): ReLU()
  )
  (encoder_mean): Linear(in_features=10, out_features=5, bias=True)
  (encoder_log_std): Linear(in_features=10, out_features=5, bias=True)
  (decoder): Sequential(
    (0): Linear(in_features=5, out_features=10, bias=True)
    (1): ReLU()
    (2): Linear(in_features=10, out_features=20, bias=True)
    (3): ReLU()
    (4): Linear(in_features=20, out_features=10, bias=True)
    (5): ReLU()
    (6): Linear(in_features=10, out_features=7, bias=True)
    (7): ReLU()
  )
), 
VAE(
  (encoder): Sequential(
    (0): Linear(in_features=6, out_features=10, bias=True)
    (1): ReLU()
    (2): Linear(in_features=10, out_features=20, bias=True)
    (3): ReLU()
    (4): Linear(in_features=20, out_features=10, bias=True)
    (5): ReLU()
  )
  (encoder_mean): Linear(in_features=10, out_features=5, bias=True)
  (encoder_log_std): Linear(in_features=10, out_features=5, bias=True)
  (decoder): Sequential(
    (0): Linear(in_features=5, out_features=10, bias=True)
    (1): ReLU()
    (2): Linear(in_features=10, out_features=20, bias=True)
    (3): ReLU()
    (4): Linear(in_features=20, out_features=10, bias=True)
    (5): ReLU()
    (6): Linear(in_features=10, out_features=6, bias=True)
    (7): ReLU()
  )
), 
VAE(
  (encoder): Sequential(
    (0): Linear(in_features=7, out_features=10, bias=True)
    (1): ReLU()
    (2): Linear(in_features=10, out_features=20, bias=True)
    (3): ReLU()
    (4): Linear(in_features=20, out_features=10, bias=True)
    (5): ReLU()
  )
  (encoder_mean): Linear(in_features=10, out_features=5, bias=True)
  (encoder_log_std): Linear(in_features=10, out_features=5, bias=True)
  (decoder): Sequential(
    (0): Linear(in_features=5, out_features=10, bias=True)
    (1): ReLU()
    (2): Linear(in_features=10, out_features=20, bias=True)
    (3): ReLU()
    (4): Linear(in_features=20, out_features=10, bias=True)
    (5): ReLU()
    (6): Linear(in_features=10, out_features=7, bias=True)
    (7): ReLU()
  )
), 
VAE(
  (encoder): Sequential(
    (0): Linear(in_features=4, out_features=10, bias=True)
    (1): ReLU()
    (2): Linear(in_features=10, out_features=20, bias=True)
    (3): ReLU()
    (4): Linear(in_features=20, out_features=10, bias=True)
    (5): ReLU()
  )
  (encoder_mean): Linear(in_features=10, out_features=5, bias=True)
  (encoder_log_std): Linear(in_features=10, out_features=5, bias=True)
  (decoder): Sequential(
    (0): Linear(in_features=5, out_features=10, bias=True)
    (1): ReLU()
    (2): Linear(in_features=10, out_features=20, bias=True)
    (3): ReLU()
    (4): Linear(in_features=20, out_features=10, bias=True)
    (5): ReLU()
    (6): Linear(in_features=10, out_features=4, bias=True)
    (7): ReLU()
  )
), 
VAE(
  (encoder): Sequential(
    (0): Linear(in_features=2, out_features=10, bias=True)
    (1): ReLU()
    (2): Linear(in_features=10, out_features=20, bias=True)
    (3): ReLU()
    (4): Linear(in_features=20, out_features=10, bias=True)
    (5): ReLU()
  )
  (encoder_mean): Linear(in_features=10, out_features=5, bias=True)
  (encoder_log_std): Linear(in_features=10, out_features=5, bias=True)
  (decoder): Sequential(
    (0): Linear(in_features=5, out_features=10, bias=True)
    (1): ReLU()
    (2): Linear(in_features=10, out_features=20, bias=True)
    (3): ReLU()
    (4): Linear(in_features=20, out_features=10, bias=True)
    (5): ReLU()
    (6): Linear(in_features=10, out_features=2, bias=True)
    (7): ReLU()
  )
), 
VAE(
  (encoder): Sequential(
    (0): Linear(in_features=7, out_features=10, bias=True)
    (1): ReLU()
    (2): Linear(in_features=10, out_features=20, bias=True)
    (3): ReLU()
    (4): Linear(in_features=20, out_features=10, bias=True)
    (5): ReLU()
  )
  (encoder_mean): Linear(in_features=10, out_features=5, bias=True)
  (encoder_log_std): Linear(in_features=10, out_features=5, bias=True)
  (decoder): Sequential(
    (0): Linear(in_features=5, out_features=10, bias=True)
    (1): ReLU()
    (2): Linear(in_features=10, out_features=20, bias=True)
    (3): ReLU()
    (4): Linear(in_features=20, out_features=10, bias=True)
    (5): ReLU()
    (6): Linear(in_features=10, out_features=7, bias=True)
    (7): ReLU()
  )
), 
VAE(
  (encoder): Sequential(
    (0): Linear(in_features=6, out_features=10, bias=True)
    (1): ReLU()
    (2): Linear(in_features=10, out_features=20, bias=True)
    (3): ReLU()
    (4): Linear(in_features=20, out_features=10, bias=True)
    (5): ReLU()
  )
  (encoder_mean): Linear(in_features=10, out_features=5, bias=True)
  (encoder_log_std): Linear(in_features=10, out_features=5, bias=True)
  (decoder): Sequential(
    (0): Linear(in_features=5, out_features=10, bias=True)
    (1): ReLU()
    (2): Linear(in_features=10, out_features=20, bias=True)
    (3): ReLU()
    (4): Linear(in_features=20, out_features=10, bias=True)
    (5): ReLU()
    (6): Linear(in_features=10, out_features=6, bias=True)
    (7): ReLU()
  )
), 
VAE(
  (encoder): Sequential(
    (0): Linear(in_features=7, out_features=10, bias=True)
    (1): ReLU()
    (2): Linear(in_features=10, out_features=20, bias=True)
    (3): ReLU()
    (4): Linear(in_features=20, out_features=10, bias=True)
    (5): ReLU()
  )
  (encoder_mean): Linear(in_features=10, out_features=5, bias=True)
  (encoder_log_std): Linear(in_features=10, out_features=5, bias=True)
  (decoder): Sequential(
    (0): Linear(in_features=5, out_features=10, bias=True)
    (1): ReLU()
    (2): Linear(in_features=10, out_features=20, bias=True)
    (3): ReLU()
    (4): Linear(in_features=20, out_features=10, bias=True)
    (5): ReLU()
    (6): Linear(in_features=10, out_features=7, bias=True)
    (7): ReLU()
  )
), 
VAE(
  (encoder): Sequential(
    (0): Linear(in_features=7, out_features=10, bias=True)
    (1): ReLU()
    (2): Linear(in_features=10, out_features=20, bias=True)
    (3): ReLU()
    (4): Linear(in_features=20, out_features=10, bias=True)
    (5): ReLU()
  )
  (encoder_mean): Linear(in_features=10, out_features=5, bias=True)
  (encoder_log_std): Linear(in_features=10, out_features=5, bias=True)
  (decoder): Sequential(
    (0): Linear(in_features=5, out_features=10, bias=True)
    (1): ReLU()
    (2): Linear(in_features=10, out_features=20, bias=True)
    (3): ReLU()
    (4): Linear(in_features=20, out_features=10, bias=True)
    (5): ReLU()
    (6): Linear(in_features=10, out_features=7, bias=True)
    (7): ReLU()
  )
), 
VAE(
  (encoder): Sequential(
    (0): Linear(in_features=7, out_features=10, bias=True)
    (1): ReLU()
    (2): Linear(in_features=10, out_features=20, bias=True)
    (3): ReLU()
    (4): Linear(in_features=20, out_features=10, bias=True)
    (5): ReLU()
  )
  (encoder_mean): Linear(in_features=10, out_features=5, bias=True)
  (encoder_log_std): Linear(in_features=10, out_features=5, bias=True)
  (decoder): Sequential(
    (0): Linear(in_features=5, out_features=10, bias=True)
    (1): ReLU()
    (2): Linear(in_features=10, out_features=20, bias=True)
    (3): ReLU()
    (4): Linear(in_features=20, out_features=10, bias=True)
    (5): ReLU()
    (6): Linear(in_features=10, out_features=7, bias=True)
    (7): ReLU()
  )
), 
VAE(
  (encoder): Sequential(
    (0): Linear(in_features=7, out_features=10, bias=True)
    (1): ReLU()
    (2): Linear(in_features=10, out_features=20, bias=True)
    (3): ReLU()
    (4): Linear(in_features=20, out_features=10, bias=True)
    (5): ReLU()
  )
  (encoder_mean): Linear(in_features=10, out_features=5, bias=True)
  (encoder_log_std): Linear(in_features=10, out_features=5, bias=True)
  (decoder): Sequential(
    (0): Linear(in_features=5, out_features=10, bias=True)
    (1): ReLU()
    (2): Linear(in_features=10, out_features=20, bias=True)
    (3): ReLU()
    (4): Linear(in_features=20, out_features=10, bias=True)
    (5): ReLU()
    (6): Linear(in_features=10, out_features=7, bias=True)
    (7): ReLU()
  )
), 
VAE(
  (encoder): Sequential(
    (0): Linear(in_features=2, out_features=10, bias=True)
    (1): ReLU()
    (2): Linear(in_features=10, out_features=20, bias=True)
    (3): ReLU()
    (4): Linear(in_features=20, out_features=10, bias=True)
    (5): ReLU()
  )
  (encoder_mean): Linear(in_features=10, out_features=5, bias=True)
  (encoder_log_std): Linear(in_features=10, out_features=5, bias=True)
  (decoder): Sequential(
    (0): Linear(in_features=5, out_features=10, bias=True)
    (1): ReLU()
    (2): Linear(in_features=10, out_features=20, bias=True)
    (3): ReLU()
    (4): Linear(in_features=20, out_features=10, bias=True)
    (5): ReLU()
    (6): Linear(in_features=10, out_features=2, bias=True)
    (7): ReLU()
  )
), 
VAE(
  (encoder): Sequential(
    (0): Linear(in_features=7, out_features=10, bias=True)
    (1): ReLU()
    (2): Linear(in_features=10, out_features=20, bias=True)
    (3): ReLU()
    (4): Linear(in_features=20, out_features=10, bias=True)
    (5): ReLU()
  )
  (encoder_mean): Linear(in_features=10, out_features=5, bias=True)
  (encoder_log_std): Linear(in_features=10, out_features=5, bias=True)
  (decoder): Sequential(
    (0): Linear(in_features=5, out_features=10, bias=True)
    (1): ReLU()
    (2): Linear(in_features=10, out_features=20, bias=True)
    (3): ReLU()
    (4): Linear(in_features=20, out_features=10, bias=True)
    (5): ReLU()
    (6): Linear(in_features=10, out_features=7, bias=True)
    (7): ReLU()
  )
), 
VAE(
  (encoder): Sequential(
    (0): Linear(in_features=7, out_features=10, bias=True)
    (1): ReLU()
    (2): Linear(in_features=10, out_features=20, bias=True)
    (3): ReLU()
    (4): Linear(in_features=20, out_features=10, bias=True)
    (5): ReLU()
  )
  (encoder_mean): Linear(in_features=10, out_features=5, bias=True)
  (encoder_log_std): Linear(in_features=10, out_features=5, bias=True)
  (decoder): Sequential(
    (0): Linear(in_features=5, out_features=10, bias=True)
    (1): ReLU()
    (2): Linear(in_features=10, out_features=20, bias=True)
    (3): ReLU()
    (4): Linear(in_features=20, out_features=10, bias=True)
    (5): ReLU()
    (6): Linear(in_features=10, out_features=7, bias=True)
    (7): ReLU()
  )
), 
VAE(
  (encoder): Sequential(
    (0): Linear(in_features=3, out_features=10, bias=True)
    (1): ReLU()
    (2): Linear(in_features=10, out_features=20, bias=True)
    (3): ReLU()
    (4): Linear(in_features=20, out_features=10, bias=True)
    (5): ReLU()
  )
  (encoder_mean): Linear(in_features=10, out_features=5, bias=True)
  (encoder_log_std): Linear(in_features=10, out_features=5, bias=True)
  (decoder): Sequential(
    (0): Linear(in_features=5, out_features=10, bias=True)
    (1): ReLU()
    (2): Linear(in_features=10, out_features=20, bias=True)
    (3): ReLU()
    (4): Linear(in_features=20, out_features=10, bias=True)
    (5): ReLU()
    (6): Linear(in_features=10, out_features=3, bias=True)
    (7): ReLU()
  )
), 
VAE(
  (encoder): Sequential(
    (0): Linear(in_features=7, out_features=10, bias=True)
    (1): ReLU()
    (2): Linear(in_features=10, out_features=20, bias=True)
    (3): ReLU()
    (4): Linear(in_features=20, out_features=10, bias=True)
    (5): ReLU()
  )
  (encoder_mean): Linear(in_features=10, out_features=5, bias=True)
  (encoder_log_std): Linear(in_features=10, out_features=5, bias=True)
  (decoder): Sequential(
    (0): Linear(in_features=5, out_features=10, bias=True)
    (1): ReLU()
    (2): Linear(in_features=10, out_features=20, bias=True)
    (3): ReLU()
    (4): Linear(in_features=20, out_features=10, bias=True)
    (5): ReLU()
    (6): Linear(in_features=10, out_features=7, bias=True)
    (7): ReLU()
  )
), 
VAE(
  (encoder): Sequential(
    (0): Linear(in_features=6, out_features=10, bias=True)
    (1): ReLU()
    (2): Linear(in_features=10, out_features=20, bias=True)
    (3): ReLU()
    (4): Linear(in_features=20, out_features=10, bias=True)
    (5): ReLU()
  )
  (encoder_mean): Linear(in_features=10, out_features=5, bias=True)
  (encoder_log_std): Linear(in_features=10, out_features=5, bias=True)
  (decoder): Sequential(
    (0): Linear(in_features=5, out_features=10, bias=True)
    (1): ReLU()
    (2): Linear(in_features=10, out_features=20, bias=True)
    (3): ReLU()
    (4): Linear(in_features=20, out_features=10, bias=True)
    (5): ReLU()
    (6): Linear(in_features=10, out_features=6, bias=True)
    (7): ReLU()
  )
), 
VAE(
  (encoder): Sequential(
    (0): Linear(in_features=7, out_features=10, bias=True)
    (1): ReLU()
    (2): Linear(in_features=10, out_features=20, bias=True)
    (3): ReLU()
    (4): Linear(in_features=20, out_features=10, bias=True)
    (5): ReLU()
  )
  (encoder_mean): Linear(in_features=10, out_features=5, bias=True)
  (encoder_log_std): Linear(in_features=10, out_features=5, bias=True)
  (decoder): Sequential(
    (0): Linear(in_features=5, out_features=10, bias=True)
    (1): ReLU()
    (2): Linear(in_features=10, out_features=20, bias=True)
    (3): ReLU()
    (4): Linear(in_features=20, out_features=10, bias=True)
    (5): ReLU()
    (6): Linear(in_features=10, out_features=7, bias=True)
    (7): ReLU()
  )
), 
VAE(
  (encoder): Sequential(
    (0): Linear(in_features=7, out_features=10, bias=True)
    (1): ReLU()
    (2): Linear(in_features=10, out_features=20, bias=True)
    (3): ReLU()
    (4): Linear(in_features=20, out_features=10, bias=True)
    (5): ReLU()
  )
  (encoder_mean): Linear(in_features=10, out_features=5, bias=True)
  (encoder_log_std): Linear(in_features=10, out_features=5, bias=True)
  (decoder): Sequential(
    (0): Linear(in_features=5, out_features=10, bias=True)
    (1): ReLU()
    (2): Linear(in_features=10, out_features=20, bias=True)
    (3): ReLU()
    (4): Linear(in_features=20, out_features=10, bias=True)
    (5): ReLU()
    (6): Linear(in_features=10, out_features=7, bias=True)
    (7): ReLU()
  )
), 
VAE(
  (encoder): Sequential(
    (0): Linear(in_features=3, out_features=10, bias=True)
    (1): ReLU()
    (2): Linear(in_features=10, out_features=20, bias=True)
    (3): ReLU()
    (4): Linear(in_features=20, out_features=10, bias=True)
    (5): ReLU()
  )
  (encoder_mean): Linear(in_features=10, out_features=5, bias=True)
  (encoder_log_std): Linear(in_features=10, out_features=5, bias=True)
  (decoder): Sequential(
    (0): Linear(in_features=5, out_features=10, bias=True)
    (1): ReLU()
    (2): Linear(in_features=10, out_features=20, bias=True)
    (3): ReLU()
    (4): Linear(in_features=20, out_features=10, bias=True)
    (5): ReLU()
    (6): Linear(in_features=10, out_features=3, bias=True)
    (7): ReLU()
  )
), 
VAE(
  (encoder): Sequential(
    (0): Linear(in_features=4, out_features=10, bias=True)
    (1): ReLU()
    (2): Linear(in_features=10, out_features=20, bias=True)
    (3): ReLU()
    (4): Linear(in_features=20, out_features=10, bias=True)
    (5): ReLU()
  )
  (encoder_mean): Linear(in_features=10, out_features=5, bias=True)
  (encoder_log_std): Linear(in_features=10, out_features=5, bias=True)
  (decoder): Sequential(
    (0): Linear(in_features=5, out_features=10, bias=True)
    (1): ReLU()
    (2): Linear(in_features=10, out_features=20, bias=True)
    (3): ReLU()
    (4): Linear(in_features=20, out_features=10, bias=True)
    (5): ReLU()
    (6): Linear(in_features=10, out_features=4, bias=True)
    (7): ReLU()
  )
), 
VAE(
  (encoder): Sequential(
    (0): Linear(in_features=7, out_features=10, bias=True)
    (1): ReLU()
    (2): Linear(in_features=10, out_features=20, bias=True)
    (3): ReLU()
    (4): Linear(in_features=20, out_features=10, bias=True)
    (5): ReLU()
  )
  (encoder_mean): Linear(in_features=10, out_features=5, bias=True)
  (encoder_log_std): Linear(in_features=10, out_features=5, bias=True)
  (decoder): Sequential(
    (0): Linear(in_features=5, out_features=10, bias=True)
    (1): ReLU()
    (2): Linear(in_features=10, out_features=20, bias=True)
    (3): ReLU()
    (4): Linear(in_features=20, out_features=10, bias=True)
    (5): ReLU()
    (6): Linear(in_features=10, out_features=7, bias=True)
    (7): ReLU()
  )
), 
VAE(
  (encoder): Sequential(
    (0): Linear(in_features=2, out_features=10, bias=True)
    (1): ReLU()
    (2): Linear(in_features=10, out_features=20, bias=True)
    (3): ReLU()
    (4): Linear(in_features=20, out_features=10, bias=True)
    (5): ReLU()
  )
  (encoder_mean): Linear(in_features=10, out_features=5, bias=True)
  (encoder_log_std): Linear(in_features=10, out_features=5, bias=True)
  (decoder): Sequential(
    (0): Linear(in_features=5, out_features=10, bias=True)
    (1): ReLU()
    (2): Linear(in_features=10, out_features=20, bias=True)
    (3): ReLU()
    (4): Linear(in_features=20, out_features=10, bias=True)
    (5): ReLU()
    (6): Linear(in_features=10, out_features=2, bias=True)
    (7): ReLU()
  )
), 
VAE(
  (encoder): Sequential(
    (0): Linear(in_features=7, out_features=10, bias=True)
    (1): ReLU()
    (2): Linear(in_features=10, out_features=20, bias=True)
    (3): ReLU()
    (4): Linear(in_features=20, out_features=10, bias=True)
    (5): ReLU()
  )
  (encoder_mean): Linear(in_features=10, out_features=5, bias=True)
  (encoder_log_std): Linear(in_features=10, out_features=5, bias=True)
  (decoder): Sequential(
    (0): Linear(in_features=5, out_features=10, bias=True)
    (1): ReLU()
    (2): Linear(in_features=10, out_features=20, bias=True)
    (3): ReLU()
    (4): Linear(in_features=20, out_features=10, bias=True)
    (5): ReLU()
    (6): Linear(in_features=10, out_features=7, bias=True)
    (7): ReLU()
  )
), 
VAE(
  (encoder): Sequential(
    (0): Linear(in_features=6, out_features=10, bias=True)
    (1): ReLU()
    (2): Linear(in_features=10, out_features=20, bias=True)
    (3): ReLU()
    (4): Linear(in_features=20, out_features=10, bias=True)
    (5): ReLU()
  )
  (encoder_mean): Linear(in_features=10, out_features=5, bias=True)
  (encoder_log_std): Linear(in_features=10, out_features=5, bias=True)
  (decoder): Sequential(
    (0): Linear(in_features=5, out_features=10, bias=True)
    (1): ReLU()
    (2): Linear(in_features=10, out_features=20, bias=True)
    (3): ReLU()
    (4): Linear(in_features=20, out_features=10, bias=True)
    (5): ReLU()
    (6): Linear(in_features=10, out_features=6, bias=True)
    (7): ReLU()
  )
), 
VAE(
  (encoder): Sequential(
    (0): Linear(in_features=4, out_features=10, bias=True)
    (1): ReLU()
    (2): Linear(in_features=10, out_features=20, bias=True)
    (3): ReLU()
    (4): Linear(in_features=20, out_features=10, bias=True)
    (5): ReLU()
  )
  (encoder_mean): Linear(in_features=10, out_features=5, bias=True)
  (encoder_log_std): Linear(in_features=10, out_features=5, bias=True)
  (decoder): Sequential(
    (0): Linear(in_features=5, out_features=10, bias=True)
    (1): ReLU()
    (2): Linear(in_features=10, out_features=20, bias=True)
    (3): ReLU()
    (4): Linear(in_features=20, out_features=10, bias=True)
    (5): ReLU()
    (6): Linear(in_features=10, out_features=4, bias=True)
    (7): ReLU()
  )
)]
torch.Size([28478, 153])
... torch.Size([28478, 7])
... torch.Size([28478, 7])
... torch.Size([28478, 6])
... torch.Size([28478, 7])
... torch.Size([28478, 4])
... torch.Size([28478, 2])
... torch.Size([28478, 7])
... torch.Size([28478, 6])
... torch.Size([28478, 7])
... torch.Size([28478, 7])
... torch.Size([28478, 7])
... torch.Size([28478, 7])
…
